4-Convolutional Neural Networks/overfit_deepconvnet.pth (torch, 112160 bytes, 10 tensors)

W1 f4 [8, 3, 3, 3]
-0.02507458 -0.035864852 -0.031089196 -0.070872016 0.043748125 -0.020942854 -0.10455361 -0.33831006
-0.14921606 -0.03873872 0.13362832 0.054367725 -0.07495194 0.0481278 0.00396799 -0.19547917
-0.3456371 -0.42257607 0.23008183 0.28565276 0.23684472 -0.16469009 0.0023893537 0.23318717
-0.052368905 -0.19372638 -0.15179169 0.05621034 0.18066238 0.19119455 0.11549071 -0.08152076
-0.034608364 0.021459237 -0.034394454 0.09711925 0.12822193 0.099973224 0.15353028 0.1244401
0.04418998 0.15827753 0.06950199 0.090715535 0.1997614 0.21147195 -0.17310826 -0.1993116
-0.09275106 0.016023569 0.047226626 0.009905615 -0.07056017 -0.037640475 -0.08935696 -0.13042758
-0.029468656 -0.0012161392 0.13873401 0.40970427 -0.19287807 -0.108695775 0.2663602 -0.09402581
-0.042159457 0.1993816 0.1346121 0.21476606 0.009883161 0.32175195 0.06843599 0.21317163
-0.36751124 -0.21083522 -0.12038858 -0.23529421 -0.19669892 0.13028562 -0.14165817 0.04909417
0.05104692 0.12937152 -0.09671673 0.050786868 0.15787798 -0.008232142 0.16746844 0.1550363
0.028708618 0.2926282 -0.2372857 -0.13050917 -0.17729405 -0.09370829 -0.04979474 0.065725185
0.26458153 -0.13991989 0.053115677 -0.014285209 -0.35262638 -0.19993636 -0.047310993 -0.055133276
-0.024842646 0.030882835 -0.01928442 0.010825228 -0.024075527 -0.19963834 -0.039341193 -0.18750495
-0.15012574 -0.36317533 -0.098261885 -0.13670225 -0.016209746 -0.055778563 -0.21243508 -0.13099378
-0.16051877 -0.16968891 0.093454786 -0.09888616 -0.09854052 0.05831036 0.13360885 0.13025163
-0.084902994 -0.032796457 -0.100557335 0.05559138 0.100695476 0.005023777 0.18325055 -0.10709386
0.03927902 0.14508852 -0.13531226 -0.08960888 0.104138896 -0.17733066 -0.10431092 0.006698447
-0.040400386 0.04945657 0.16450632 0.05229021 0.05982195 0.15627138 -0.047557548 -0.047755133
0.060781028 -0.23254862 -0.3016003 -0.006594782 -0.25246155 -0.09411997 0.02347315 -0.12893455
-0.062059134 -0.15537666 0.044290695 0.038159844 0.1469091 -0.09254252 0.098976195 0.096214555
-0.017281521 -0.014167439 -0.033696678 0.0432157 0.01729063 -0.082342416 -0.008503212 -0.13499768
0.008203405 -0.07493702 -0.19555768 -0.08837193 0.29491964 0.22595315 0.324819 0.24738832
0.08296182 0.10377188 0.36265704 0.23407538 0.2185705 -0.18596202 -0.18674414 -0.22874902
-0.17439793 -0.046885982 -0.10086032 -0.113653734 -0.1137968 -0.060349084 -0.13967766 0.019473586
-0.07585299 -0.22197932 -0.055044677 -0.2535794 -0.28155318 -0.47882763 -0.36862633 0.07390318
0.024164712 -0.07374717 0.051383384 -0.046561692 0.020548694 0.0046554985 -0.10562954 -0.14548232
00000000: 3569 cdbc 06e7 12bd c5ae febc 5925 91bd
00000010: 3c31 333d 5990 abbc 3420 d6bd fa36 adbe
00000020: 18cc 18be 7eac 1ebd ddd5 083e b1b0 5e3d
00000030: 6780 99bd a821 453d ea05 823b b12b 48be
00000040: 59f7 b0be e45b d8be 929a 6b3e 1441 923e
00000050: 6c87 723e 85a4 28be b496 1c3b 9ec8 6e3e
00000060: c780 56bd 3560 46be 486f 1bbe d03c 663d
00000070: 8fff 383e 81c8 433e 6586 ec3d 5bf4 a6bd
00000080: 80c1 0dbd 48cb af3c 33e1 0cbd 75e6 c63d
00000090: 9c4c 033e c3be cc3d 0b37 1d3e 73da fe3d
000000a0: 8d00 353d 8113 223e 0f57 8e3d 11c9 b93d
000000b0: 418e 4c3e 1a8c 583e 4b43 31be 5718 4cbe
000000c0: 45f4 bdbd dc43 833c b570 413d 294b 223c
000000d0: da81 90bd e62c 1abd c800 b7bd cf8e 05be
000000e0: 4068 f1bc dc66 9fba 4a10 0e3e c2c4 d13e
000000f0: d481 45be e49b debd 5d60 883e 9b90 c0bd
00000100: 65af 2cbd b12a 4c3e c1d7 093e a2eb 5b3e
00000110: fbec 213c acbc a43e 2b28 8c3d aa49 5a3e
00000120: 6f2a bcbe 30e5 57be 4a8e f6bd f7f0 70be
00000130: 716b 49be 9869 053e d70e 11be f816 493d
00000140: 9316 513d f879 043e 6c13 c6bd e405 503d
00000150: c4aa 213e 1be0 06bc d97c 2b3e d6c1 1e3e
00000160: 562e eb3c 5dd3 953e 06fb 72be 32a4 05be
00000170: 928c 35be 22ea bfbd 92f5 4bbd ed9a 863d
00000180: 3b77 873e 2947 0fbe d38f 593d 820c 6abc
00000190: 728b b4be 1ebc 4cbe 2cc9 41bd 6ed3 61bd
000001a0: ce82 cbbc 00fe fc3c 5cfa 9dbc 4c5c 313c
000001b0: 0a3a c5bc fe6d 4cbe 3b24 21bd 4c01 40be
000001c0: 90ba 19be 1ef2 b9be 873d c9bd adfb 0bbe
000001d0: 4dca 84bc 1078 64bd 9588 59be 3c23 06be
000001e0: 085f 24be eec2 2dbe 3965 bf3d d484 cabd
000001f0: 9dcf c9bd d8d6 6e3d c2d0 083e af60 053e
00000200: 9fe1 adbd 9455 06bd 01f1 cdbd c9b3 633d
00000210: 6e39 ce3d 7f9e a43b 08a6 3b3e 0754 dbbd
00000220: 0ae3 203d 1692 143e 4c8f 0abe dc84 b7bd
00000230: c646 d53d 2b96 35be f7a0 d5bd a57e db3b
00000240: e07a 25bd f992 4a3d 5874 283e 422e 563d
00000250: dc07 753d 9b05 203e b4cb 42bd e39a 43bd
00000260: 87f5 783d 3a21 6ebe 5b6b 9abe 0b19 d8bb
00000270: a442 81be f9c1 c0bd c34a c03c 6b07 04be
00000280: b831 7ebd 0f1b 1fbe 296a 353d 7f4d 1c3d
00000290: 576f 163e ef86 bdbd 08b4 ca3d 230c c53d
000002a0: fa91 8dbc 8c1e 68bc 8705 0abd f202 313d
000002b0: 14a5 8d3c 24a3 a8bd 0e51 0bbc d53c 0abe
000002c0: 9367 063c 9578 99bd 4640 48be 58fc b4bd
000002d0: b5ff 963e 4360 673e ad4e a63e 5d53 7d3e
000002e0: e3e7 a93d 5a86 d43d 2fae b93e 75b1 6f3e
000002f0: f2d0 5f3e d46c 3ebe db39 3fbe 2f3d 6abe
00000300: 5f95 32be 840b 40bd db8f cebd 4ac3 e8bd
00000310: 4c0e e9bd 9a30 77bd a907 0fbe 1287 9f3c
00000320: d058 9bbd 8c4e 63be 8776 61bd 29d5 81be
00000330: bd27 90be e528 f5be 97bc bcbe 8d5a 973d
00000340: 13f5 c53c c208 97bd 6277 523d 79b7 3ebd
00000350: bc55 a83c 278d 983b 4d54 d8bd 51f9 14be

b1 f4 [8]
-0.09232488 0.043200072 0.06411935 -0.038670138 -0.044704486 -0.055061493 0.05067666 -0.12110537
00000000: d414 bdbd 8ff2 303d 0151 833d 9464 1ebd
00000010: 0d1c 37bd 2988 61bd 5492 4f3d 1806 f8bd

W2 f4 [16, 8, 3, 3]
-0.14390369 0.087061435 -0.17249188 -0.12776728 -0.08177768 -0.021636032 -0.015804606 0.03614091
-0.19283801 -0.24847862 0.06399521 -0.08337321 -0.24387209 -0.090758175 -0.16500688 -0.0011453019
0.020851128 -0.11620275 -0.10195367 -0.038336128 -0.05420667 -0.07078816 -0.0950889 -0.038096894
-0.089467496 -0.19333096 -0.029453257 0.012670479 0.113319226 -0.11372469 -0.15325168 -0.1372718
0.05019789 -0.061909515 -0.063116305 0.029097576 0.10451808 -0.037178308 -0.16502926 -0.1346386
-0.06968187 -0.15176822 -0.0039697303 -0.04370369 -0.16984922 0.044456463 -0.048646327 -0.14537661
-0.16319822 -0.12962762 -0.065391846 -0.15609914 -0.13119292 -0.29284146 -0.1422617 -0.04184654
-0.0045083254 -0.07320015 -0.052586164 -0.26989147 -0.1858164 -0.08311227 -0.030967249 0.051495653
-0.22837567 -0.056453377 -0.20179749 -0.09718093 -0.104474135 -0.18992157 -0.022399701 -0.19527943
-0.12439494 -0.2019349 -0.45299935 0.15222882 0.077362835 0.12503941 0.1550027 0.08511176
-0.09486428 0.026877748 0.21089293 -0.09408825 0.11075771 0.20425396 0.15043367 -0.15500082
-0.035246182 0.018370437 0.057154242 -0.09653539 -0.043206774 -0.05870727 -0.21170133 -0.008727414
0.07947988 -0.06558419 -0.040944315 -0.036880314 -0.20040609 0.06077559 0.0032682912 0.03641709
-0.09370351 -0.020545306 0.006101936 0.016850565 0.26252353 0.23488908 0.0029143596 -0.19540846
-0.05320495 -0.117228664 -0.08737313 0.021294901 -0.064712964 -0.14509284 -0.14327289 -0.37801072
-0.08247364 -0.5414541 -0.5514955 -0.23701583 -0.188426 -0.43638375 0.21048029 8.0851256e-05
0.11470863 0.10150106 0.16537766 0.23193017 0.15516362 0.05150972 0.3016998 -0.022947038
-0.017987844 -0.041731093 -0.13349088 -0.3850915 -0.14051023 0.2740269 0.045574743 0.047690406
-0.47110918 0.013968235 -0.093066245 -0.016684374 -0.314822 -0.05673575 -0.27899507 -0.2946525
-0.26232964 0.1551531 -0.16203175 -0.37894744 0.38030383 -0.05923846 -0.2486219 0.2733748
0.06844561 -0.23360507 0.14970897 0.22997993 -0.18976602 0.13555887 0.08079833 0.078619905
-0.03242654 -0.06374453 -0.08693584 -0.022777123 -0.05177465 0.09153963 -0.21569593 -0.16925631
-0.14163049 -0.31074268 -0.17307377 -0.025644653 -0.5863692 -0.053401772 -0.006790764 -0.42458785
-0.02301331 0.12295347 -0.36472356 -0.017731864 -0.04038029 0.11882939 0.024832327 -0.032285254
0.24954301 0.019465031 0.15552126 0.019976545 -0.18528149 0.10340276 0.086836435 0.19264817
-0.261788 0.10054851 0.12007886 -0.16989398 0.018432755 0.105286315 -0.2680796 -0.22585772
-0.122257814 0.094672084 -0.17814547 -0.17166997 0.10909376 -0.13960694 -0.06192736 0.17116138
-0.042740244 -0.025335409 -0.08119342 -0.18901959 0.044348925 -0.14882676 -0.16956057 -0.35407895
0.008947981 0.0013651485 -0.14405234 -0.0042876676 0.047707196 -0.12933232 -0.01785026 0.11905079
-0.104618125 -0.12530619 0.10786733 0.10706148 0.18050197 0.14703062 -0.11142138 0.11231222
0.2217361 0.084858544 0.27231866 0.11819396 0.11534529 0.27424493 0.09841823 0.084292635
0.16615568 0.2457457 0.15232807 0.035348423 -0.018321741 -0.10703601 0.008159481 -0.28032658
00000000: 7d5b 13be 444d b23d b6a1 30be 6dd5 02be
00000010: 0e7b a7bd 0c3e b1bc a978 81bc 7e08 143d
00000020: 5477 45be 2e71 7ebe ec0f 833d 93bf aabd
00000030: 9bb9 79be 6cdf b9bd 90f7 28be f41d 96ba
00000040: fccf aa3c b5fb edbd 16cd d0bd 5806 1dbd
00000050: d007 5ebd 62f9 90bd f8bd c2bd 7d0b 1cbd
00000060: bc3a b7bd 8df8 45be f547 f1bc d797 4f3c
00000070: e913 e83d 7ee8 e8bd 02ee 1cbe fb90 0cbe
00000080: 4d9c 4d3d d594 7dbd 1f43 81bd 0a5e ee3c
00000090: 930d d63d 4848 18bd 6efd 28be b3de 09be
000000a0: 5eb5 8ebd 2169 1bbe 8314 82bb a402 33bd
000000b0: f4ec 2dbe fb17 363d 5f41 47bd 9bdd 14be
000000c0: 6f1d 27be 1abd 04be 29ec 85bd 74d8 1fbe
000000d0: 7057 06be 51ef 95be 0dad 11be 4767 2bbd
000000e0: 93ba 93bb f6e9 95bd 9764 57bd 372f 8abe
000000f0: a846 3ebe c436 aabd 07af fdbc 1bed 523d
00000100: 50db 69be a83b 67bd 00a4 4ebe cc06 c7bd
00000110: 89f6 d5bd cd7a 42be 947f b7bc 55f7 47be
00000120: c6c2 febd 06c8 4ebe 88ef e7be dfe1 1b3e
00000130: 6870 9e3d 550a 003e 07b9 1e3e 134f ae3d
00000140: 3448 c2bd b92e dc3c 51f4 573e 57b1 c0bd
00000150: f0d4 e23d f327 513e 490b 1a3e 89b8 1ebe
00000160: 4d5e 10bd 997d 963c 911a 6a3d 59b4 c5bd
00000170: 96f9 30bd 0977 70bd 3cc8 58be 6dfd 0ebc
00000180: 59c6 a23d 0151 86bd 3ab5 27bd d00f 17bd
00000190: 4137 4dbe d3ef 783d d430 563b 162a 153d
000001a0: a0e7 bfbd a14e a8bc c0f2 c73b 320a 8a3c
000001b0: 7c69 863e c386 703e d7fe 3e3b 2819 48be
000001c0: 6fed 59bd 9515 f0bd aff0 b2bd a572 ae3c
000001d0: 3b88 84bd 3893 14be 21b6 12be 9f8a c1be
000001e0: f1e7 a8bd bc9c 0abf cf2e 0dbf 47b4 72be
000001f0: bff2 40be b16d dfbe 2588 573e b08e a938
00000200: 5cec ea3d cadf cf3d c358 293e 1a7f 6d3e
00000210: 36e3 1e3e dbfb 523d 6578 9a3e 6dfb bbbc
00000220: 3e5b 93bc 39ee 2abd d5b1 08be b72a c5be
00000230: eae1 0fbe 414d 8c3e 95ac 3a3d 0457 433d
00000240: 3935 f1be 06db 643c 8499 bebd abad 88bc
00000250: 5930 a1be bf63 68bd 71d8 8ebe b1dc 96be
00000260: 1250 86be 74e0 1e3e a7eb 25be 6605 c2be
00000270: 2fb7 c23e 07a4 72bd bd96 7ebe c8f7 8b3e
00000280: 362d 8c3d 2b36 6fbe 4f4d 193e dc7f 6b3e
00000290: 0652 42be f2cf 0a3e 9879 a53d 7903 a13d
000002a0: b1d1 04bd 7e8c 82bd 6b0b b2bd 1797 babc
000002b0: a811 54bd 2179 bb3d 65df 5cbe 8751 2dbe
000002c0: 9507 11be aa19 9fbe 403a 31be bc14 d2bc
000002d0: 4b1c 16bf d1bb 5abd 0f85 debb 9463 d9be
000002e0: 6986 bcbc 07cf fb3d 0cbd babe 6a42 91bc
000002f0: ce65 25bd d35c f33d 2a6d cb3c 8b3d 04bd
00000300: 3488 7f3e 2175 9f3c f740 1f3e daa5 a33c
00000310: 6eba 3dbe d4c4 d33d 4dd7 b13d 9045 453e
00000320: 1409 86be 61ec cd3d e8eb f53d b0f8 2dbe
00000330: 4a00 973c 5aa0 d73d bb41 89be 3f47 67be
00000340: 4e62 fabd 70e3 c13d c46b 36be 41ca 2fbe
00000350: 8d6c df3d 1ff5 0ebe 8ba7 7dbd ee44 2f3e
00000360: 6510 2fbd 348c cfbc bc48 a6bd 5a8e 41be
00000370: 38a7 353d 0b66 18be 49a1 2dbe d649 b5be
00000380: 8d9a 123c c8ee b23a 7582 13be 907f 8cbb
00000390: 9f68 433d b16f 04be b53a 92bc e7d0 f33d
000003a0: 0742 d6bd 4450 00be 8ce9 dc3d 0d43 db3d
000003b0: 82d5 383e 328f 163e e430 e4bd f303 e63d
000003c0: ca0e 633e 51ca ad3d 5a6d 8b3e ad0f f23d
000003d0: 273a ec3d d569 8c3e 7f8f c93d 9ea1 ac3d
000003e0: b724 2a3e c3a4 7b3e e4fb 1b3e 82c9 103d
000003f0: 7a17 96bc b235 dbbd 58af 053c f786 8fbe

b2 f4 [16]
-0.09889892 0.074995175 0.031157596 0.08115046 -0.07299509 0.065128185 -0.017405493 -0.1496765
-0.067394815 -0.02993712 -0.043279685 -0.06912823 0.02834955 0.0070801885 -0.06857433 0.08434652
00000000: 848b cabd 1297 993d 373e ff3c 3632 a63d
00000010: 737e 95bd ed61 853d f795 8ebc cc44 19be
00000020: 4b06 8abd b13e f5bc 0a46 31bd 1a93 8dbd
00000030: 513d e83c ed00 e83b b370 8cbd debd ac3d

W3 f4 [32, 16, 3, 3]
0.04071718 0.12925243 0.037104942 0.006455477 -0.10530747 -0.033870354 0.053857386 -0.13733838
-0.14297041 -0.5724927 -0.21300311 0.23403947 -0.1544297 -0.04167387 -0.23754925 0.06410658
-0.13010079 0.07760226 -0.036293313 -0.34986514 0.028781196 0.2049194 0.113173254 -0.19349137
0.015499669 0.10368036 0.14578477 0.27442396 -0.09092322 -0.1270482 0.13897711 0.13545676
0.33115396 0.07667257 0.029825 -0.009345918 -0.08675049 -0.0012853104 -0.020379446 -0.022107953
0.016816268 0.04882663 -0.07418525 -0.17802218 0.13818327 0.025470052 -0.021631075 -0.07998769
0.02811335 0.043307953 -0.02073975 0.08222557 -0.0051393164 -0.03790662 -0.35416478 -0.33830142
0.38382927 -0.11024157 -0.04709635 0.11853556 0.03541875 0.0050098673 0.15809284 0.14741117
-0.023125568 -0.018119084 0.13824116 0.18234944 0.053892225 0.05587928 0.15915462 0.07980916
0.14535943 0.040790528 0.26601744 -0.33238563 0.15568534 0.1486894 0.0053629363 -0.17653735
0.09576345 -0.03448874 -0.08564093 0.09244318 0.073930375 -0.19598894 -0.03768575 -0.1714633
0.13579468 0.28740826 0.19869344 0.09293114 0.095785275 0.10250363 -0.057898853 -0.10787913
0.22610801 -0.15128 0.0987909 0.004374434 0.11671254 0.26861346 0.08233706 0.10588007
-0.11524308 -0.008257062 -0.034543872 0.012652155 -0.53344077 -0.051211055 0.01608665 -0.075418405
-0.028961336 -0.02234608 -0.116888635 0.0794703 -0.017093245 -0.028416503 -0.22660619 -0.33868563
0.26057002 0.23376662 0.4731246 -0.33823797 0.052530564 0.12700622 -0.022451509 0.0826713
0.09690214 0.07040159 0.004092464 0.049317736 0.08635554 0.09024665 0.09472753 -0.21428216
-0.25339204 -0.23156482 0.010014411 -0.02284475 -0.096418455 -0.14953375 -0.020905294 0.13982885
0.015662361 0.0057508275 0.030266456 -0.04994309 0.2865931 0.13532859 0.02680891 0.1266737
0.1475045 -0.23600261 -0.4993437 -0.16359702 -0.14384758 -0.04735527 -0.25347862 -0.099972926
-0.02159982 -0.20446222 -0.12717311 -0.12632006 0.06700049 0.108301304 0.09535687 0.15700184
0.11047139 -0.073878065 0.089947574 0.0125926975 0.17033455 0.12117256 0.13601322 0.16570576
0.04953402 -0.035928644 0.05266465 -0.06069617 0.12215645 0.06293809 -0.056406677 -0.043635324
0.15398496 -0.19723071 -0.006265371 0.0012035765 -0.20992737 0.10855662 0.13689397 0.10123481
-0.065245755 -0.03744459 0.14715621 -0.14116 -0.07136074 -0.18928826 0.0055256747 -0.09755961
-0.17520744 -0.18102309 -0.11783711 -0.31552243 -0.2450773 -0.013569962 -0.10794346 -0.23920478
0.03180043 0.043844916 0.09845654 0.1196676 0.042967316 -0.08309937 -0.14982459 -0.13085634
0.040738974 -0.18326643 -0.62721694 0.096539125 -0.051822037 -0.11540131 -0.2309681 -0.061999347
-0.097067356 -0.3474071 -0.029579712 -0.19093837 -0.28554627 -0.05649478 -0.117523134 0.041219454
-0.14307347 -0.006505273 0.06617642 0.006983425 0.024510244 0.054661296 0.034369137 -0.051270045
0.14079477 -0.18289474 0.050556693 0.10898369 0.030596038 0.14628623 0.05792722 -0.0928232
-0.18141626 -0.026421623 0.16234215 0.08625233 -0.1547543 0.013984559 -0.09281624 -0.024683991
00000000: 0fc7 263d c05a 043e 5afb 173d 7788 d33b
00000010: 71ab d7bd a4bb 0abd 9099 5c3d 6fa2 0cbe
00000020: d666 12be e28e 12bf 7d1d 5abe 0ba8 6f3e
00000030: d222 1ebe 38b2 2abd 1c40 73be 504a 833d
00000040: 2439 05be efed 9e3d 4ca8 14bd 8621 b3be
00000050: 8bc6 eb3c 64d6 513e 61c7 e73d 9a22 46be
00000060: 53f2 7d3c 5e56 d43d 9a48 153e 4c81 8c3e
00000070: f435 babd ec18 02be 0450 0e3e 2db5 0a3e
00000080: 038d a93e 8206 9d3d 8f53 f43c 9f1f 19bc
00000090: 3eaa b1bd dc77 a8ba ccf2 a6bc bd1b b5bc
000000a0: 45c2 893c 6ffe 473d 70ee 97bd 724b 36be
000000b0: ea7f 0d3e 92a6 d03c a733 b1bc 96d0 a3bd
000000c0: f84d e63c ae63 313d 68e6 a9bc e165 a83d
000000d0: b667 a8bb f943 1bbd 1655 b5be d835 adbe
000000e0: 4585 c43e 55c6 e1bd 1ae8 40bd c6c2 f23d
000000f0: 4013 113d d029 a43b 17e3 213e f4f2 163e
00000100: d571 bdbc 796e 94bc 178f 0d3e d0b9 3a3e
00000110: 18be 5c3d ace1 643d 6ef9 223e fc72 a33d
00000120: 1ad9 143e f813 273d 7033 883e 732e aabe
00000130: fa6b 1f3e 0942 183e 92bb af3b 35c6 34be
00000140: a11f c43d 1144 0dbd 8364 afbd da52 bd3d
00000150: cf68 973d 53b1 48be 5f5c 1abd 1394 2fbe
00000160: c30d 0b3e 2d27 933e 4b76 4b3e ae52 be3d
00000170: 122b c43d 6ced d13d 5927 6dbd bcef dcbd
00000180: dc88 673e 25e9 1abe e252 ca3d 6957 8f3b
00000190: fc06 ef3d b487 893e 55a0 a83d a6d7 d83d
000001a0: 9004 ecbd a148 07bc e07d 0dbd fc4a 4f3c
000001b0: 938f 08bf afc2 51bd 26c8 833c f774 9abd
000001c0: 5340 edbc 200f b7bc 4f63 efbd 53c1 a23d
000001d0: 2207 8cbc bac9 e8bc 740b 68be 3468 adbe
000001e0: 6f69 853e 8460 6f3e 633d f23e 872d adbe
000001f0: 4a2a 573d eb0d 023e 3aec b7bc 924f a93d
00000200: a174 c63d b52e 903d 141a 863b 6501 4a3d
00000210: 2cdb b03d 3cd3 b83d 8200 c23d c86c 5bbe
00000220: 9abc 81be 541f 6dbe 7c13 243c ea24 bbbc
00000230: 0a77 c5bd 601f 19be 9441 abbc 4b2f 0f3e
00000240: 5a4e 803c 7071 bc3b 5cf1 f73c 2091 4cbd
00000250: 55bc 923e 9493 0a3e 5c9e db3c c0b6 013e
00000260: 6b0b 173e abaa 71be faa9 ffbe fa85 27be
00000270: c84c 13be 99f7 41bd f3c7 81be 9bbe ccbd
00000280: 1bf2 b0bc 8b5e 51be ab39 02be 0c5a 01be
00000290: 8e37 893d 13cd dd3d 764a c33d 17c5 203e
000002a0: d33e e23d 624d 97bd 6f36 b83d 9a51 4e3c
000002b0: 2e6c 2e3e 5229 f83d 0d47 0b3e c5ae 293e
000002c0: 2fe4 4a3d ea29 13bd e3b6 573d 8c9c 78bd
000002d0: 292d fa3d afe5 803d b00a 67bd f4ba 32bd
000002e0: 3cae 1d3e d9f6 49be be4d cdbb 53c1 9d3a
000002f0: 33f7 56be ef52 de3d ef2d 0c3e 3254 cf3d
00000300: 919f 85bd 805f 19bd 1eb0 163e 3f8c 10be
00000310: 9425 92bd c8d4 41be b810 b53b 55cd c7bd
00000320: 9469 33be 1e5e 39be 9554 f1bd 288c a1be
00000330: 8bf5 7abe 8c54 5ebc 7611 ddbd 19f2 74be
00000340: 2b41 023d ba96 333d 95a3 c93d 4914 f53d
00000350: 7ffe 2f3d 0130 aabd 9e6b 19be 34ff 05be
00000360: e9dd 263d 32aa 3bbe 4a91 20bf 4eb6 c53d
00000370: 5843 54bd 8657 ecbd e782 6cbe 07f3 7dbd
00000380: 40cb c6bd 58df b1be 2751 f2bc 5985 43be
00000390: 1f33 92be 1267 67bd f8af f0bd bbd5 283d
000003a0: da81 12be 2f2a d5bb 8187 873d 37d5 e43b
000003b0: b5c9 c83c 86e4 5f3d a7c6 0c3d 8a00 52bd
000003c0: 812c 103e c248 3bbe 8914 4f3d d732 df3d
000003d0: 8ba4 fa3c 0fcc 153e 1845 6d3d 171a bebd
000003e0: 2fc5 39be 2972 d8bc 053d 263e 10a5 b03d
000003f0: e977 1ebe 7e1f 653c 7116 bebd 1536 cabc

b3 f4 [32]
0.010566636 0.06866968 -0.04416419 -0.05943923 -0.0072812964 0.038306367 0.020715151 -0.027934983
0.061218154 0.11336908 0.1191386 0.032538235 -0.08798006 -0.07153001 -0.058547456 -0.17558786
-0.06614838 -0.09278078 -0.1630397 -0.08391874 -0.08544778 -0.10379292 0.004991988 -0.03679349
-0.043095663 -0.08410435 -0.017539827 -0.03222375 0.03352611 0.033019997 0.052295096 0.05781167
00000000: af1f 2d3c b0a2 8c3d 82e5 34bd 8d76 73bd
00000010: f197 eebb 23e7 1c3d d2b2 a93c e8d7 e4bc
00000020: e3bf 7a3d 0c2e e83d f0fe f33d d046 053d
00000030: e42e b4bd 537e 92bd 75cf 6fbd 4ecd 33be
00000040: cd78 87bd d903 bebd e1f3 26be 97dd abbd
00000050: 3fff aebd 6291 d4bd d593 a33b c5b4 16bd
00000060: 1485 30bd e73e acbd afaf 8fbc 0dfd 03bd
00000070: ad52 093d fa3f 073d 6233 563d eecb 6c3d

W4 f4 [64, 32, 3, 3]
0.21019766 -0.22319858 0.10460712 0.15477823 -0.19087616 -0.17166843 0.18452846 0.16820332
0.15313208 0.0013584626 0.10448536 -0.014793685 -0.08598195 -0.08693542 -0.034220885 -0.10947501
0.029842883 0.29704764 -0.20056105 0.19177237 -0.097706266 0.100272074 -0.020078473 0.010593215
0.029112065 0.019640738 0.05930768 -0.112075925 0.09929387 0.1946057 0.03298506 0.059065223
0.13283022 0.16914037 0.0022861247 0.23939009 -0.31416267 -0.051413294 -0.030689085 0.056685068
0.07845518 -0.15280707 -0.10430046 -0.123528674 -0.42136472 0.02510992 -0.08689947 0.204185
0.1779473 -0.15295058 -0.0074283206 0.023772895 -0.2166476 -0.43836075 0.008112326 -0.32984355
0.04849146 -0.20686439 0.0058676125 -0.13947943 -0.12415976 0.12398311 0.2079776 -0.067309976
-0.28065476 0.061715893 0.01461198 -0.28896227 -0.21464545 -0.11106199 0.0065936744 -0.14695644
-0.14157306 0.022220392 0.26056108 -0.22696173 -0.045196105 -0.2044095 -0.05081158 0.20998326
0.36517695 0.33658192 0.08913561 0.1477743 0.22172192 -0.09358298 0.030570386 0.037935536
-0.1444801 -0.07704991 -0.09271179 0.18268277 0.041613236 0.23750317 -0.07449437 0.10694792
-0.050833352 0.17826948 0.31469133 0.3449544 0.019542333 0.26560473 -0.0041047335 -0.0021935478
-0.2690662 -0.08235341 0.22686784 0.18393181 0.059789855 -0.09054483 0.14293747 -0.07547712
0.00081493915 0.17155418 0.040459886 -0.05209775 0.02359727 -0.103239544 -0.054939043 -0.0005305768
-0.23845738 -0.18599959 0.08625769 -0.4097918 0.053969715 -0.16969158 0.18436292 -0.00806657
-0.23575865 -0.09095047 -0.042219613 -0.101490244 -0.07752599 -0.028144669 -0.29612958 0.1220237
-0.113273315 -0.09192313 0.17624864 0.00026640782 -0.34719148 0.23861456 0.112450026 -0.0001198562
-0.08020518 -0.077049986 -0.10004259 -0.072701 -0.013554251 -0.07541327 0.27044758 0.11427838
-0.07904449 -0.07136446 -0.10488992 -0.1468934 0.119709924 -0.09599146 0.05676625 -0.0848803
-0.09556508 0.038650393 0.16572666 -0.046476424 -0.08919587 0.009339013 -0.1601777 0.11796909
-0.14475104 -0.058383185 -0.00702486 0.061842207 -0.2406126 -0.0395246 0.039101176 0.10012522
-0.10189033 -0.011392575 -0.03345803 -0.07315195 0.10972589 0.15066457 0.09719793 0.06094791
0.16371292 0.07425428 0.0854883 -0.025947351 0.098604105 0.079300575 0.02629339 -0.32376567
0.25847813 0.08519244 -0.25902662 0.0013935927 -0.10729664 -0.22264516 -0.19494021 -0.016086236
0.10844225 -0.3861221 -0.22813253 -0.26240236 0.12312762 0.14932501 -0.0018925029 -0.026944866
-0.14331597 -0.09272787 -0.10040303 -0.017201835 0.11602856 -0.11676533 -0.26194093 -0.25906706
-0.10543963 -0.07111327 0.11209119 -0.30018565 -0.06889233 0.056999706 -0.06429106 -0.15243475
0.039127134 -0.017073179 0.0080277985 0.18653743 -0.10828124 0.10790275 0.08620781 0.09851507
0.027796984 0.12925796 0.293845 0.50429106 -0.011545372 0.14534876 0.21509148 -0.08078527
-0.00068199076 0.084140144 0.45499325 0.0038672981 0.09376227 -0.08743485 0.17294525 0.18032159
0.094359234 -0.07017948 -0.18379456 -0.0127293505 -0.34186018 0.03764908 0.18933891 -0.3640436
00000000: 0e3e 573e 2b8e 64be 423c d63d 2f7e 1e3e
00000010: 0a75 43be d9c9 2fbe 07f5 3c3e 7e3d 2c3e
00000020: a8ce 1c3e 710e b23a 6cfc d53d 3661 72bc
00000030: 4e17 b0bd 330b b2bd 332b 0cbd 6f34 e0bd
00000040: 1079 f43c a116 983e e05f 4dbe fa5f 443e
00000050: 391a c8bd 725b cd3d 9c7b a4bc 2a8f 2d3c
00000060: 6d7c ee3c 9de5 a03c 9cec 723d 1088 e5bd
00000070: 965a cb3d b746 473e 581b 073d 60ee 713d
00000080: a504 083e 2233 2d3e cfd2 153b ad22 753e
00000090: eed9 a0be bf96 52bd ad67 fbbc 9a2e 683d
000000a0: 1cad a03d 7579 1cbe 7b9b d5bd 9afc fcbd
000000b0: 1ebd d7be 52b3 cd3c 59f8 b1bd df15 513e
000000c0: d137 363e 149f 1cbe 4569 f3bb 60bf c23c
000000d0: ded8 5dbe d270 e0be 90e9 043c 41e1 a8be
000000e0: fb9e 463d 42d4 53be 1a45 c03b b2d3 0ebe
000000f0: 7947 febd dbea fd3d 14f8 543e d0d9 89bd
00000100: fbb1 8fbe cec9 7c3d 1667 6f3c ddf2 93be
00000110: 04cc 5bbe 7874 e3bd c00f d83b c07b 16be
00000120: 87f8 10be 8a07 b63c 4368 853e a868 68be
00000130: 8d1f 39bd b950 51be ce1f 50bd da05 573e
00000140: 79f8 ba3e 7754 ac3e bb8c b63d 2552 173e
00000150: 120b 633e 6fa8 bfbd bf6e fa3c 4b62 1b3d
00000160: 97f2 13be 58cc 9dbd aedf bdbd 3111 3b3e
00000170: a472 2a3d 0834 733e 8190 98bd 8307 db3d
00000180: a236 50bd 468c 363e 391f a13e dd9d b03e
00000190: 3e17 a03c 58fd 873e 0081 86bb a0c1 0fbb
000001a0: 0cc3 89be e8a8 a8bd 0b50 683e 9f58 3c3e
000001b0: 35e6 743d 916f b9bd 335e 123e c093 9abd
000001c0: a4a1 553a e6ab 2f3e 44b9 253d 7364 55bd
000001d0: 104f c13c 416f d3bd c307 61bd 6816 0bba
000001e0: 2c2e 74be ad76 3ebe dfa7 b03d 3bd0 d1be
000001f0: 590f 5d3d a1c3 2dbe a2c9 3c3e a629 04bc
00000200: b76a 71be 3d44 babd 79ee 2cbd 1eda cfbd
00000210: f2c5 9ebd a68f e6bc 4c9e 97be 90e7 f93d
00000220: d7fb e7bd 3242 bcbd 867a 343e a7ac 8b39
00000230: 15c3 b1be 6057 743e 334c e63d 4f5b fbb8
00000240: 9d42 a4bd 62cc 9dbd 21e3 ccbd 43e4 94bd
00000250: a612 5ebc 4672 9abd 1b78 8a3e c90a ea3d
00000260: 14e2 a1bd 8827 92bd 87d0 d6bd 396b 16be
00000270: 7a2a f53d 2c97 c4bd ba83 683d b9d5 adbd
00000280: a0b7 c3bd e04f 1e3d 40b4 293e 105e 3ebd
00000290: 53ac b6bd a902 193c 9f05 24be c799 f13d
000002a0: 9e39 14be 3523 6fbd cc30 e6bb 414e 7d3d
000002b0: 2663 76be 8ce4 21bd 8e28 203d 740e cd3d
000002c0: e1ab d0bd eca7 3abc 4a0b 09bd b1d0 95bd
000002d0: f8b7 e03d d047 1a3e b50f c73d 84a4 793d
000002e0: 5ca4 273e a112 983d 7d14 af3d 8a8f d4bc
000002f0: f3f0 c93d 5768 a23d 3c65 d73c 9dc4 a5be
00000300: 3f57 843e 6079 ae3d 239f 84be 36a9 b63a
00000310: 57be dbbd 18fd 63be 689e 47be 48c7 83bc
00000320: f816 de3d ccb1 c5be 939b 69be 9a59 86be
00000330: 552a fc3d a8e8 183e dc0d f8ba 7bbb dcbc
00000340: 6cc1 12be 1ce8 bdbd 1ba0 cdbd ddea 8cbc
00000350: 62a0 ed3d a922 efbd 1f1d 86be 70a4 84be
00000360: bcf0 d7bd d6a3 91bd 1190 e53d efb1 99be
00000370: 6c17 8dbd 8678 693d 08ab 83bd db17 1cbe
00000380: c643 203d 0ddd 8bbc 0787 033c ab03 3f3e
00000390: 8ec2 ddbd 1efc dc3d b88d b03d 45c2 c93d
000003a0: 80b6 e33c 335c 043e da72 963e 3819 013f
000003b0: cd28 3dbc 4ed6 143e f140 5c3e bf72 a5bd
000003c0: a0c7 32ba ab51 ac3d e0f4 e83e 7f72 7d3b
000003d0: 6f06 c03d 0b11 b3bd 8f18 313e 39a6 383e
000003e0: 6a3f c13d 42ba 8fbd a434 3cbe c48e 50bc
000003f0: 4c08 afbe ec35 1a3d 0fe2 413e ec63 babe

b4 f4 [64]
0.004399857 -0.032999005 -0.020546276 -0.07813493 -0.06865585 -0.010060807 -0.07971562 0.04803822
-0.05193094 -0.046060134 0.09636667 -0.081327625 -0.12146514 -0.081452355 0.052922357 -0.05655118
-0.06005485 -0.08107145 0.046821747 -0.092820086 -0.023265893 0.015625756 -0.057714414 0.13600408
0.051935293 0.02050875 -0.044087965 -0.04389689 -0.06336713 -0.056970056 -0.09972933 -0.11688836
-0.00577315 -0.036878645 -0.060055 -0.064409144 -0.07220282 0.075224794 0.046112712 -0.09548441
-0.07062212 -0.084946595 0.019478597 -0.06294947 -0.08337132 -0.083224125 -0.03915204 -0.0890098
-0.0863969 -0.08078418 -0.023569379 -0.07765225 -0.055772185 0.0040287306 0.17306383 0.011171797
-0.085863225 -0.018774346 -0.044402674 0.07036435 0.021006532 -0.062228393 -0.06754242 0.044734173
00000000: ad2c 903b f729 07bd aa50 a8bc 3505 a0bd
00000010: 709b 8cbd 15d6 24bc f141 a3bd b9c3 443d
00000020: 8ab5 54bd 8da9 3cbd e45b c53d 198f a6bd
00000030: b7c2 f8bd 7ed0 a6bd 1dc5 583d 36a2 67bd
00000040: 13fc 75bd ca08 a6bd 29c8 3f3d 7518 bebd
00000050: 1d98 bebc 9601 803c f365 6cbd a744 0b3e
00000060: 1aba 543d f701 a83c 9595 34bd 3acd 33bd
00000070: a0c6 81bd 6f59 69bd e43e ccbd 2a63 efbd
00000080: b12c bdbb 100e 17bd 3bfc 75bd f1e8 83bd
00000090: 12df 93bd 750f 9a3d afe0 3c3d 558d c3bd
000000a0: 54a2 90bd 7bf8 adbd 9491 9f3c a7eb 80bd
000000b0: 95be aabd 6971 aabd e45d 20bd c54a b6bd
000000c0: dcf0 b0bd 2d72 a5bd 9214 c1bc 2508 9fbd
000000d0: 6071 64bd 7103 843b a537 313e ea09 373c
000000e0: 0fd9 afbd a8cc 99bc 94df 35bd 2f1b 903d
000000f0: e415 ac3c 33e3 7ebd ae53 8abd 2e3b 373d

W5 f4 [256, 10]
-0.24849077 0.0743662 -0.09745546 -0.1503794 0.183236 -0.1373252 0.1268566 0.06449038
-0.2816931 -0.26938903 -0.03866601 -0.102031514 -0.2546214 0.1709701 -0.06736635 0.09915716
-0.023265371 0.2952795 -0.19964087 0.0019243227 -0.06323815 0.18543379 -0.06325086 -0.13617492
0.14810827 -0.38179263 0.14481227 -0.2627648 -0.10985501 0.012658272 -0.11509882 -0.25173774
0.068720244 0.072271094 3.8626255e-05 0.21314302 -0.03727034 -0.41230145 -0.15438698 -0.03017476
-0.23003371 0.072777554 -0.068637885 0.10668475 -0.018021796 -0.16853133 -0.03440974 0.1318121
0.06746112 -0.025883446 0.0366136 -0.14562435 0.05063201 0.22946802 -0.15047441 -0.36682168
0.06435751 -0.20652428 -0.023356868 -0.24393326 -0.021572476 -0.042839482 -0.07086215 -0.074732825
-0.052547134 -0.1685715 0.060302004 -0.07726718 -0.39227265 -0.12744947 0.09994878 0.033450242
0.112881385 0.09230075 -0.0024646828 -0.19570355 -0.06927762 0.009451835 -0.24809645 0.25000036
-0.06838262 -0.09438184 0.09598044 0.2731172 -0.076668575 -0.06904901 0.07820169 -0.269535
-0.3497419 -0.21847208 -0.458874 0.0024853786 0.052902024 0.1543689 0.03936565 0.108214505
-0.035932463 -0.13701554 -0.15402348 -0.19441223 0.065735 0.17408992 0.106151424 -0.027057806
-0.24511041 -0.21310826 0.10525714 -0.0152875 -0.1937177 0.2724591 0.079960614 -0.05052776
-0.19786356 -0.19205612 0.19824553 -0.3095547 0.13462448 0.062010832 -0.23209326 -0.3340923
0.10645962 -0.015735654 -0.16105205 0.14601782 -0.17200173 0.15193637 -0.030420655 0.079013266
0.0065699876 -0.0066394187 -0.12980652 0.20657484 0.23342595 -0.10026704 -0.101311944 -0.32675683
-0.20397753 -0.23279487 0.10544877 0.1007794 0.043967634 0.28754938 -0.022584843 -0.16261815
0.03794045 -0.12035703 -0.2706255 -0.26425728 0.051892173 -0.15735297 0.06028701 0.025631284
-0.013671042 -0.05288648 0.091085844 -0.03445891 0.06002891 0.056487136 -0.21805194 -0.06337993
0.15072851 -0.16341154 0.042477723 0.025573453 0.011699056 0.059524283 0.20212139 -0.17043345
-0.13068838 0.09917114 -0.115083784 0.04535249 -0.04643112 -0.07814284 -0.094239935 -0.16381632
-0.06815785 0.06548795 0.0028157386 0.10530233 -0.08496157 0.00089363987 0.02392027 -0.008797866
-0.06529642 0.06844731 0.07725387 -0.052043654 -0.11253214 0.19508493 0.0751204 0.027860057
-0.040494315 0.11165469 0.021652723 -0.03667737 0.14744116 -0.03467839 -0.014308392 -0.18282409
0.14241353 -0.2064339 -0.22964993 -0.14435689 0.09944647 -0.38273454 -0.11278885 -0.073221356
-0.00065873296 0.048241153 0.1378068 0.054175306 0.20825663 -0.10694099 -0.221895 -0.19193281
-0.15966426 0.11999037 -0.21825519 -0.21019281 0.084083416 0.16147083 -0.35095733 0.09960979
-0.051284436 -0.020999227 -0.07218391 0.041053157 -0.19305295 0.015202556 0.008013486 0.07869755
0.13977261 -0.289058 -0.34934533 -0.05377923 -0.12023796 0.020111667 0.054623272 0.24283738
0.04641639 -0.0026792476 0.08107752 0.039949052 0.15331265 -0.09147683 0.09687548 -0.13801223
0.08716606 0.27639696 0.07388411 0.04738503 -0.032172754 -0.0092485435 -0.0049262363 0.010639863
00000000: 5d74 7ebe 4e4d 983d ba96 c7bd 0ffd 19be
00000010: 38a2 3b3e fa9e 0cbe b2e6 013e 8813 843d
00000020: 143a 90be 5ced 89be 4060 1ebd e6f5 d0bd
00000030: bc5d 82be c912 2f3e 5ef7 89bd e912 cb3d
00000040: 0597 bebc e02e 973e a86e 4cbe 8e39 fc3a
00000050: 0183 81bd 5be2 3d3e ab89 81bd 7071 0bbe
00000060: b2a9 173e 537a c3be ab49 143e 1c89 86be
00000070: aafb e0bd a464 4f3c eeb8 ebbd c5e3 80be
00000080: 33bd 8c3d de02 943d a002 2238 2a42 5a3e
00000090: c9a8 18bd 2d19 d3be 9f17 1ebe 0f31 f7bc
000000a0: f58d 6bbe 660c 953d 0592 8cbd 897d da3d
000000b0: 72a2 93bc 7a93 2cbe 3af1 0cbd c0f9 063e
000000c0: 0e29 8a3d 8509 d4bc 24f8 153d 8d1e 15be
000000d0: 8363 4f3d aaf9 6a3e f715 1abe 0dd0 bbbe
000000e0: dfcd 833d 1a7b 53be e756 bfbc a4c9 79be
000000f0: c3b8 b0bc 7478 2fbd 2d20 91bd 860d 99bd
00000100: aa3b 57bd 029e 2cbe 3cff 763d 413e 9ebd
00000110: f6d7 c8be 1d82 02be f2b1 cc3d 1f03 093d
00000120: 5b2e e73d 2d08 bd3d 8486 21bb 8366 48be
00000130: 6de1 8dbd dfdb 1a3c ff0c 7ebe 0c00 803e
00000140: 300c 8cbd 444b c1bd 6591 c43d 05d6 8b3e
00000150: 6a04 9dbd 9169 8dbd 3528 a03d 7e00 8abe
00000160: 5f11 b3be 25b7 5fbe 88f1 eabe bce1 223b
00000170: cbaf 583d e212 1e3e e03d 213d 919f dd3d
00000180: eb2d 13bd cd4d 0cbe 55b8 1dbe 0014 47be
00000190: 12a0 863d a144 323e eb65 d93d 55a8 ddbc
000001a0: 39fe 7abe 0d39 5abe 0e91 d73d 6c78 7abc
000001b0: ef5d 46be c27f 8b3e 64c2 a33d 32f6 4ebd
000001c0: bf9c 4abe 5caa 44be e000 4b3e f47d 9ebe
000001d0: 00db 093e 12ff 7d3d dba9 6dbe 250e abbe
000001e0: 8007 da3d 0fe8 80bc d4ea 24be b285 153e
000001f0: 3921 30be 3595 1b3e bd34 f9bc b5d1 a13d
00000200: 0d49 d73b 7b8f d9bb 00ec 04be 5b88 533e
00000210: 3607 6f3e ce58 cdbd a37c cfbd ac4c a7be
00000220: 7cdf 50be c761 6ebe 86f5 d73d 6e65 ce3d
00000230: 6817 343d ac39 933e d903 b9bc 5f85 26be
00000240: 7267 1b3d bf7d f6bd 6d8f 8abe bb4c 87be
00000250: e38c 543d 2321 21be 83ef 763d b3f8 d13c
00000260: 82fc 5fbc 7e9f 58bd 378b ba3d c924 0dbd
00000270: e0e0 753d 0e5f 673d 0249 5fbe 56cd 81bd
00000280: 9358 1a3e 5b55 27be 1ffd 2d3d 6b7f d13c
00000290: 66ad 3f3c bccf 733d e9f8 4e3e 1b86 2ebe
000002a0: 2dd3 05be 3d1a cb3d 0cb1 ebbd 88c3 393d
000002b0: 8f2e 3ebd 5a09 a0bd de00 c1bd 77bf 27be
000002c0: 5896 8bbd 8c1e 863d 4188 383b bfa8 d73d
000002d0: 5500 aebd 2843 6a3a 71f4 c33c ed24 10bc
000002e0: 21ba 85bd 1a2e 8c3d 4737 9e3d ba2b 55bd
000002f0: 4077 e6bd 58c4 473e b9d8 993d c63a e43c
00000300: 5edd 25bd 37ab e43d 0d61 b13c 033b 16bd
00000310: d1fa 163e ed0a 0ebd bf6d 6abc 3d36 3bbe
00000320: dad4 113e 6963 53be 5a29 6bbe 4bd2 13be
00000330: 97aa cb3d c8f5 c3be d7fd e6bd 14f5 95bd
00000340: d2ae 2cba 8498 453d 3a1d 0d3e ede6 5d3d
00000350: 3a41 553e e103 dbbd 7138 63be 098a 44be
00000360: 077f 23be 83bd f53d 4a7e 5fbe c93c 57be
00000370: ed33 ac3d 9c58 253e aeb0 b3be 3800 cc3d
00000380: a10f 52bd 9206 acbc 28d5 93bd 5b27 283d
00000390: acaf 45be 2414 793c ff4a 033c 2e2c a13d
000003a0: 8d20 0f3e 69ff 93be 64dd b2be 9c47 5cbd
000003b0: 523f f6bd 39c1 a43c a7bc 5f3d 5daa 783e
000003c0: 1d1f 3e3d 5196 2fbb f90b a63d 9ea1 233d
000003d0: fefd 1c3e 3458 bbbd a766 c63d 1453 0dbe
000003e0: 1f84 b23d e783 8d3e 8d50 973d ce16 423d
000003f0: 94c7 03bd 3487 17bc 446c a1bb d252 2e3c

b5 f4 [10]
-0.090160236 -0.093018666 0.062106248 0.066487946 0.108366095 0.04382223 0.0063243057 -0.12098105
-0.14762077 0.015721487
00000000: eea5 b8bd 9280 bebd 1f63 7e3d d52a 883d
00000010: 0bef dd3d f07e 333d 1f3c cf3b eac4 f7bd
00000020: e629 17be 59ca 803c
